{"format": "graph-model", "generatedBy": "2.19.0", "convertedBy": "TensorFlow.js Converter v4.22.0", "signature": {"outputs": {"Identity:0": {"name": "Identity:0"}}}, "modelTopology": {"node": [{"name": "ConstantFolding/model_11/tf.math.divide/truediv_recip", "op": "Const", "attr": {"value": {"tensor": {"dtype": "DT_FLOAT", "tensorShape": {}}}, "dtype": {"type": "DT_FLOAT"}}}, {"name": "model_11/tf.strided_slice_3/ones_like/tensor", "op": "Const", "attr": {"value": {"tensor": {"dtype": "DT_INT64", "tensorShape": {"dim": [{"size": "3"}]}}}, "dtype": {"type": "DT_INT64"}}}, {"name": "model_11/tf.strided_slice_3/StridedSlice/end", "op": "Const", "attr": {"value": {"tensor": {"dtype": "DT_INT64", "tensorShape": {"dim": [{"size": "3"}]}}}, "dtype": {"type": "DT_INT64"}}}, {"name": "model_11/tf.strided_slice_3/ones_like", "op": "Const", "attr": {"value": {"tensor": {"dtype": "DT_INT64", "tensorShape": {"dim": [{"size": "3"}]}}}, "dtype": {"type": "DT_INT64"}}}, {"name": "model_11/tf.math.add_23/Add/y", "op": "Const", "attr": {"value": {"tensor": {"dtype": "DT_FLOAT", "tensorShape": {"dim": [{"size": "1"}, {"size": "2"}, {"size": "2000"}]}}}, "dtype": {"type": "DT_FLOAT"}}}, {"name": "model_11/4905", "op": "Const", "attr": {"value": {"tensor": {"dtype": "DT_FLOAT", "tensorShape": {"dim": [{"size": "1"}, {"size": "2"}, {"size": "2000"}]}}}, "dtype": {"type": "DT_FLOAT"}}}, {"name": "model_11/tf.strided_slice/StridedSlice/begin", "op": "Const", "attr": {"value": {"tensor": {"dtype": "DT_INT64", "tensorShape": {"dim": [{"size": "3"}]}}}, "dtype": {"type": "DT_INT64"}}}, {"name": "model_11/tf.strided_slice/StridedSlice/end", "op": "Const", "attr": {"value": {"tensor": {"dtype": "DT_INT64", "tensorShape": {"dim": [{"size": "3"}]}}}, "dtype": {"type": "DT_INT64"}}}, {"name": "model_11/tf.strided_slice/StridedSlice/strides", "op": "Const", "attr": {"value": {"tensor": {"dtype": "DT_INT64", "tensorShape": {"dim": [{"size": "3"}]}}}, "dtype": {"type": "DT_INT64"}}}, {"name": "model_11/tf.reshape_8/Reshape/shape", "op": "Const", "attr": {"value": {"tensor": {"dtype": "DT_INT32", "tensorShape": {"dim": [{"size": "4"}]}}}, "dtype": {"type": "DT_INT32"}}}, {"name": "model_11/tf.compat.v1.transpose_33/transpose/perm", "op": "Const", "attr": {"value": {"tensor": {"dtype": "DT_INT32", "tensorShape": {"dim": [{"size": "4"}]}}}, "dtype": {"type": "DT_INT32"}}}, {"name": "model_11/tf.compat.v1.transpose_34/transpose/perm", "op": "Const", "attr": {"value": {"tensor": {"dtype": "DT_INT32", "tensorShape": {"dim": [{"size": "4"}]}}}, "dtype": {"type": "DT_INT32"}}}, {"name": "model_11/tf.nn.convolution_23/convolution/filter", "op": "Const", "attr": {"value": {"tensor": {"dtype": "DT_FLOAT", "tensorShape": {"dim": [{"size": "1"}, {"size": "1"}, {"size": "16"}, {"size": "1"}]}}}, "dtype": {"type": "DT_FLOAT"}}}, {"name": "model_11/tf.compat.v1.transpose_39/transpose/perm", "op": "Const", "attr": {"value": {"tensor": {"dtype": "DT_INT32", "tensorShape": {"dim": [{"size": "4"}]}}}, "dtype": {"type": "DT_INT32"}}}, {"name": "model_11/tf.reshape_11/Reshape/shape", "op": "Const", "attr": {"value": {"tensor": {"dtype": "DT_INT32", "tensorShape": {"dim": [{"size": "3"}]}}}, "dtype": {"type": "DT_INT32"}}}, {"name": "model_11/tf.strided_slice_2/ones_like/tensor", "op": "Const", "attr": {"value": {"tensor": {"dtype": "DT_INT64", "tensorShape": {"dim": [{"size": "3"}]}}}, "dtype": {"type": "DT_INT64"}}}, {"name": "model_11/tf.strided_slice_2/StridedSlice/end", "op": "Const", "attr": {"value": {"tensor": {"dtype": "DT_INT64", "tensorShape": {"dim": [{"size": "3"}]}}}, "dtype": {"type": "DT_INT64"}}}, {"name": "model_11/tf.strided_slice_2/ones_like", "op": "Const", "attr": {"value": {"tensor": {"dtype": "DT_INT64", "tensorShape": {"dim": [{"size": "3"}]}}}, "dtype": {"type": "DT_INT64"}}}, {"name": "model_11/tf.concat_7/concat/axis", "op": "Const", "attr": {"value": {"tensor": {"dtype": "DT_INT32", "tensorShape": {}}}, "dtype": {"type": "DT_INT32"}}}, {"name": "model_11/tf.math.multiply_88/Mul/y", "op": "Const", "attr": {"value": {"tensor": {"dtype": "DT_FLOAT", "tensorShape": {"dim": [{"size": "1"}, {"size": "1"}, {"size": "2000"}]}}}, "dtype": {"type": "DT_FLOAT"}}}, {"name": "model_11/tf.nn.convolution_15/convolution/filter", "op": "Const", "attr": {"value": {"tensor": {"dtype": "DT_FLOAT", "tensorShape": {"dim": [{"size": "3"}, {"size": "3"}, {"size": "256"}, {"size": "64"}]}}}, "dtype": {"type": "DT_FLOAT"}}}, {"name": "model_11/tf.math.add_15/Add/y", "op": "Const", "attr": {"value": {"tensor": {"dtype": "DT_FLOAT", "tensorShape": {"dim": [{"size": "64"}]}}}, "dtype": {"type": "DT_FLOAT"}}}, {"name": "model_11/tf.nn.convolution_19/convolution/filter", "op": "Const", "attr": {"value": {"tensor": {"dtype": "DT_FLOAT", "tensorShape": {"dim": [{"size": "3"}, {"size": "3"}, {"size": "64"}, {"size": "64"}]}}}, "dtype": {"type": "DT_FLOAT"}}}, {"name": "model_11/tf.math.add_19/Add/y", "op": "Const", "attr": {"value": {"tensor": {"dtype": "DT_FLOAT", "tensorShape": {"dim": [{"size": "64"}]}}}, "dtype": {"type": "DT_FLOAT"}}}, {"name": "model_11/tf.nn.convolution_21/convolution/filter", "op": "Const", "attr": {"value": {"tensor": {"dtype": "DT_FLOAT", "tensorShape": {"dim": [{"size": "1"}, {"size": "1"}, {"size": "64"}, {"size": "64"}]}}}, "dtype": {"type": "DT_FLOAT"}}}, {"name": "model_11/tf.math.add_21/Add/y", "op": "Const", "attr": {"value": {"tensor": {"dtype": "DT_FLOAT", "tensorShape": {"dim": [{"size": "64"}]}}}, "dtype": {"type": "DT_FLOAT"}}}, {"name": "model_11/tf.nn.convolution_9/convolution/filter", "op": "Const", "attr": {"value": {"tensor": {"dtype": "DT_FLOAT", "tensorShape": {"dim": [{"size": "1"}, {"size": "1"}, {"size": "256"}, {"size": "128"}]}}}, "dtype": {"type": "DT_FLOAT"}}}, {"name": "model_11/tf.math.add_9/Add/y", "op": "Const", "attr": {"value": {"tensor": {"dtype": "DT_FLOAT", "tensorShape": {"dim": [{"size": "128"}]}}}, "dtype": {"type": "DT_FLOAT"}}}, {"name": "model_11/tf.image.resize/resize/size", "op": "Const", "attr": {"value": {"tensor": {"dtype": "DT_INT32", "tensorShape": {"dim": [{"size": "2"}]}}}, "dtype": {"type": "DT_INT32"}}}, {"name": "model_11/tf.concat/concat/axis", "op": "Const", "attr": {"value": {"tensor": {"dtype": "DT_INT32", "tensorShape": {}}}, "dtype": {"type": "DT_INT32"}}}, {"name": "model_11/tf.nn.convolution_12/convolution/filter", "op": "Const", "attr": {"value": {"tensor": {"dtype": "DT_FLOAT", "tensorShape": {"dim": [{"size": "3"}, {"size": "3"}, {"size": "384"}, {"size": "256"}]}}}, "dtype": {"type": "DT_FLOAT"}}}, {"name": "model_11/tf.math.add_12/Add/y", "op": "Const", "attr": {"value": {"tensor": {"dtype": "DT_FLOAT", "tensorShape": {"dim": [{"size": "256"}]}}}, "dtype": {"type": "DT_FLOAT"}}}, {"name": "model_11/tf.nn.convolution_16/convolution/filter", "op": "Const", "attr": {"value": {"tensor": {"dtype": "DT_FLOAT", "tensorShape": {"dim": [{"size": "3"}, {"size": "3"}, {"size": "256"}, {"size": "256"}]}}}, "dtype": {"type": "DT_FLOAT"}}}, {"name": "model_11/tf.math.add_16/Add/y", "op": "Const", "attr": {"value": {"tensor": {"dtype": "DT_FLOAT", "tensorShape": {"dim": [{"size": "256"}]}}}, "dtype": {"type": "DT_FLOAT"}}}, {"name": "model_11/tf.nn.convolution_20/convolution/filter", "op": "Const", "attr": {"value": {"tensor": {"dtype": "DT_FLOAT", "tensorShape": {"dim": [{"size": "3"}, {"size": "3"}, {"size": "256"}, {"size": "256"}]}}}, "dtype": {"type": "DT_FLOAT"}}}, {"name": "model_11/tf.math.add_20/Add/y", "op": "Const", "attr": {"value": {"tensor": {"dtype": "DT_FLOAT", "tensorShape": {"dim": [{"size": "256"}]}}}, "dtype": {"type": "DT_FLOAT"}}}, {"name": "model_11/tf.nn.convolution_22/convolution/filter", "op": "Const", "attr": {"value": {"tensor": {"dtype": "DT_FLOAT", "tensorShape": {"dim": [{"size": "1"}, {"size": "1"}, {"size": "256"}, {"size": "28"}]}}}, "dtype": {"type": "DT_FLOAT"}}}, {"name": "model_11/tf.math.add_22/Add/y", "op": "Const", "attr": {"value": {"tensor": {"dtype": "DT_FLOAT", "tensorShape": {"dim": [{"size": "28"}]}}}, "dtype": {"type": "DT_FLOAT"}}}, {"name": "model_11/tf.concat_2/concat/axis", "op": "Const", "attr": {"value": {"tensor": {"dtype": "DT_INT32", "tensorShape": {}}}, "dtype": {"type": "DT_INT32"}}}, {"name": "model_11/tf.compat.v1.transpose_26/transpose/perm", "op": "Const", "attr": {"value": {"tensor": {"dtype": "DT_INT32", "tensorShape": {"dim": [{"size": "4"}]}}}, "dtype": {"type": "DT_INT32"}}}, {"name": "model_11/tf.reshape_5/Reshape/shape", "op": "Const", "attr": {"value": {"tensor": {"dtype": "DT_INT32", "tensorShape": {"dim": [{"size": "3"}]}}}, "dtype": {"type": "DT_INT32"}}}, {"name": "model_11/tf.nn.convolution_10/convolution/filter", "op": "Const", "attr": {"value": {"tensor": {"dtype": "DT_FLOAT", "tensorShape": {"dim": [{"size": "3"}, {"size": "3"}, {"size": "512"}, {"size": "64"}]}}}, "dtype": {"type": "DT_FLOAT"}}}, {"name": "model_11/tf.math.add_10/Add/y", "op": "Const", "attr": {"value": {"tensor": {"dtype": "DT_FLOAT", "tensorShape": {"dim": [{"size": "64"}]}}}, "dtype": {"type": "DT_FLOAT"}}}, {"name": "model_11/tf.nn.convolution_13/convolution/filter", "op": "Const", "attr": {"value": {"tensor": {"dtype": "DT_FLOAT", "tensorShape": {"dim": [{"size": "3"}, {"size": "3"}, {"size": "64"}, {"size": "64"}]}}}, "dtype": {"type": "DT_FLOAT"}}}, {"name": "model_11/tf.math.add_13/Add/y", "op": "Const", "attr": {"value": {"tensor": {"dtype": "DT_FLOAT", "tensorShape": {"dim": [{"size": "64"}]}}}, "dtype": {"type": "DT_FLOAT"}}}, {"name": "model_11/tf.nn.convolution_17/convolution/filter", "op": "Const", "attr": {"value": {"tensor": {"dtype": "DT_FLOAT", "tensorShape": {"dim": [{"size": "1"}, {"size": "1"}, {"size": "64"}, {"size": "64"}]}}}, "dtype": {"type": "DT_FLOAT"}}}, {"name": "model_11/tf.math.add_17/Add/y", "op": "Const", "attr": {"value": {"tensor": {"dtype": "DT_FLOAT", "tensorShape": {"dim": [{"size": "64"}]}}}, "dtype": {"type": "DT_FLOAT"}}}, {"name": "model_11/tf.nn.convolution/convolution/filter", "op": "Const", "attr": {"value": {"tensor": {"dtype": "DT_FLOAT", "tensorShape": {"dim": [{"size": "3"}, {"size": "3"}, {"size": "3"}, {"size": "16"}]}}}, "dtype": {"type": "DT_FLOAT"}}}, {"name": "model_11/tf.math.add/Add/y", "op": "Const", "attr": {"value": {"tensor": {"dtype": "DT_FLOAT", "tensorShape": {"dim": [{"size": "16"}]}}}, "dtype": {"type": "DT_FLOAT"}}}, {"name": "model_11/tf.nn.convolution_1/convolution/filter", "op": "Const", "attr": {"value": {"tensor": {"dtype": "DT_FLOAT", "tensorShape": {"dim": [{"size": "3"}, {"size": "3"}, {"size": "16"}, {"size": "32"}]}}}, "dtype": {"type": "DT_FLOAT"}}}, {"name": "model_11/tf.math.add_1/Add/y", "op": "Const", "attr": {"value": {"tensor": {"dtype": "DT_FLOAT", "tensorShape": {"dim": [{"size": "32"}]}}}, "dtype": {"type": "DT_FLOAT"}}}, {"name": "model_11/tf.nn.convolution_2/convolution/filter", "op": "Const", "attr": {"value": {"tensor": {"dtype": "DT_FLOAT", "tensorShape": {"dim": [{"size": "3"}, {"size": "3"}, {"size": "32"}, {"size": "64"}]}}}, "dtype": {"type": "DT_FLOAT"}}}, {"name": "model_11/tf.math.add_2/Add/y", "op": "Const", "attr": {"value": {"tensor": {"dtype": "DT_FLOAT", "tensorShape": {"dim": [{"size": "64"}]}}}, "dtype": {"type": "DT_FLOAT"}}}, {"name": "model_11/tf.nn.convolution_3/convolution/filter", "op": "Const", "attr": {"value": {"tensor": {"dtype": "DT_FLOAT", "tensorShape": {"dim": [{"size": "3"}, {"size": "3"}, {"size": "64"}, {"size": "128"}]}}}, "dtype": {"type": "DT_FLOAT"}}}, {"name": "model_11/tf.math.add_3/Add/y", "op": "Const", "attr": {"value": {"tensor": {"dtype": "DT_FLOAT", "tensorShape": {"dim": [{"size": "128"}]}}}, "dtype": {"type": "DT_FLOAT"}}}, {"name": "model_11/tf.nn.convolution_4/convolution/filter", "op": "Const", "attr": {"value": {"tensor": {"dtype": "DT_FLOAT", "tensorShape": {"dim": [{"size": "3"}, {"size": "3"}, {"size": "128"}, {"size": "256"}]}}}, "dtype": {"type": "DT_FLOAT"}}}, {"name": "model_11/tf.math.add_4/Add/y", "op": "Const", "attr": {"value": {"tensor": {"dtype": "DT_FLOAT", "tensorShape": {"dim": [{"size": "256"}]}}}, "dtype": {"type": "DT_FLOAT"}}}, {"name": "model_11/tf.nn.convolution_5/convolution/filter", "op": "Const", "attr": {"value": {"tensor": {"dtype": "DT_FLOAT", "tensorShape": {"dim": [{"size": "3"}, {"size": "3"}, {"size": "256"}, {"size": "512"}]}}}, "dtype": {"type": "DT_FLOAT"}}}, {"name": "model_11/tf.math.add_5/Add/y", "op": "Const", "attr": {"value": {"tensor": {"dtype": "DT_FLOAT", "tensorShape": {"dim": [{"size": "512"}]}}}, "dtype": {"type": "DT_FLOAT"}}}, {"name": "model_11/tf.compat.v1.pad/wa/model.11/Pad/paddings", "op": "Const", "attr": {"value": {"tensor": {"dtype": "DT_INT32", "tensorShape": {"dim": [{"size": "4"}, {"size": "2"}]}}}, "dtype": {"type": "DT_INT32"}}}, {"name": "model_11/tf.nn.convolution_6/convolution/filter", "op": "Const", "attr": {"value": {"tensor": {"dtype": "DT_FLOAT", "tensorShape": {"dim": [{"size": "3"}, {"size": "3"}, {"size": "512"}, {"size": "1024"}]}}}, "dtype": {"type": "DT_FLOAT"}}}, {"name": "model_11/tf.math.add_6/Add/y", "op": "Const", "attr": {"value": {"tensor": {"dtype": "DT_FLOAT", "tensorShape": {"dim": [{"size": "1024"}]}}}, "dtype": {"type": "DT_FLOAT"}}}, {"name": "model_11/tf.nn.convolution_7/convolution/filter", "op": "Const", "attr": {"value": {"tensor": {"dtype": "DT_FLOAT", "tensorShape": {"dim": [{"size": "1"}, {"size": "1"}, {"size": "1024"}, {"size": "256"}]}}}, "dtype": {"type": "DT_FLOAT"}}}, {"name": "model_11/tf.math.add_7/Add/y", "op": "Const", "attr": {"value": {"tensor": {"dtype": "DT_FLOAT", "tensorShape": {"dim": [{"size": "256"}]}}}, "dtype": {"type": "DT_FLOAT"}}}, {"name": "model_11/tf.nn.convolution_8/convolution/filter", "op": "Const", "attr": {"value": {"tensor": {"dtype": "DT_FLOAT", "tensorShape": {"dim": [{"size": "3"}, {"size": "3"}, {"size": "256"}, {"size": "512"}]}}}, "dtype": {"type": "DT_FLOAT"}}}, {"name": "model_11/tf.math.add_8/Add/y", "op": "Const", "attr": {"value": {"tensor": {"dtype": "DT_FLOAT", "tensorShape": {"dim": [{"size": "512"}]}}}, "dtype": {"type": "DT_FLOAT"}}}, {"name": "model_11/tf.nn.convolution_11/convolution/filter", "op": "Const", "attr": {"value": {"tensor": {"dtype": "DT_FLOAT", "tensorShape": {"dim": [{"size": "3"}, {"size": "3"}, {"size": "512"}, {"size": "256"}]}}}, "dtype": {"type": "DT_FLOAT"}}}, {"name": "model_11/tf.math.add_11/Add/y", "op": "Const", "attr": {"value": {"tensor": {"dtype": "DT_FLOAT", "tensorShape": {"dim": [{"size": "256"}]}}}, "dtype": {"type": "DT_FLOAT"}}}, {"name": "model_11/tf.nn.convolution_14/convolution/filter", "op": "Const", "attr": {"value": {"tensor": {"dtype": "DT_FLOAT", "tensorShape": {"dim": [{"size": "3"}, {"size": "3"}, {"size": "256"}, {"size": "256"}]}}}, "dtype": {"type": "DT_FLOAT"}}}, {"name": "model_11/tf.math.add_14/Add/y", "op": "Const", "attr": {"value": {"tensor": {"dtype": "DT_FLOAT", "tensorShape": {"dim": [{"size": "256"}]}}}, "dtype": {"type": "DT_FLOAT"}}}, {"name": "model_11/tf.nn.convolution_18/convolution/filter", "op": "Const", "attr": {"value": {"tensor": {"dtype": "DT_FLOAT", "tensorShape": {"dim": [{"size": "1"}, {"size": "1"}, {"size": "256"}, {"size": "28"}]}}}, "dtype": {"type": "DT_FLOAT"}}}, {"name": "model_11/tf.math.add_18/Add/y", "op": "Const", "attr": {"value": {"tensor": {"dtype": "DT_FLOAT", "tensorShape": {"dim": [{"size": "28"}]}}}, "dtype": {"type": "DT_FLOAT"}}}, {"name": "model_11/tf.concat_1/concat/axis", "op": "Const", "attr": {"value": {"tensor": {"dtype": "DT_INT32", "tensorShape": {}}}, "dtype": {"type": "DT_INT32"}}}, {"name": "model_11/tf.compat.v1.transpose_19/transpose/perm", "op": "Const", "attr": {"value": {"tensor": {"dtype": "DT_INT32", "tensorShape": {"dim": [{"size": "4"}]}}}, "dtype": {"type": "DT_INT32"}}}, {"name": "model_11/tf.reshape_2/Reshape/shape", "op": "Const", "attr": {"value": {"tensor": {"dtype": "DT_INT32", "tensorShape": {"dim": [{"size": "3"}]}}}, "dtype": {"type": "DT_INT32"}}}, {"name": "model_11/tf.concat_3/concat/axis", "op": "Const", "attr": {"value": {"tensor": {"dtype": "DT_INT32", "tensorShape": {}}}, "dtype": {"type": "DT_INT32"}}}, {"name": "model_11/tf.strided_slice_1/StridedSlice/begin", "op": "Const", "attr": {"value": {"tensor": {"dtype": "DT_INT64", "tensorShape": {"dim": [{"size": "3"}]}}}, "dtype": {"type": "DT_INT64"}}}, {"name": "model_11/tf.strided_slice_1/StridedSlice/end", "op": "Const", "attr": {"value": {"tensor": {"dtype": "DT_INT64", "tensorShape": {"dim": [{"size": "3"}]}}}, "dtype": {"type": "DT_INT64"}}}, {"name": "model_11/tf.strided_slice_1/StridedSlice/strides", "op": "Const", "attr": {"value": {"tensor": {"dtype": "DT_INT64", "tensorShape": {"dim": [{"size": "3"}]}}}, "dtype": {"type": "DT_INT64"}}}, {"name": "model_11/output0/concat/axis", "op": "Const", "attr": {"value": {"tensor": {"dtype": "DT_INT32", "tensorShape": {}}}, "dtype": {"type": "DT_INT32"}}}, {"name": "x", "op": "Placeholder", "attr": {"shape": {"shape": {"dim": [{"size": "1"}, {"size": "640"}, {"size": "640"}, {"size": "3"}]}}, "dtype": {"type": "DT_FLOAT"}}}, {"name": "model_11/tf.math.add/Add", "op": "_FusedConv2D", "input": ["x", "model_11/tf.nn.convolution/convolution/filter", "model_11/tf.math.add/Add/y"], "device": "/device:CPU:0", "attr": {"num_host_args": {"i": "0"}, "_input_shapes": {"list": {"shape": [{"dim": [{"size": "1"}, {"size": "-7"}, {"size": "-8"}, {"size": "-9"}]}, {"dim": [{"size": "3"}, {"size": "3"}, {"size": "3"}, {"size": "16"}]}]}}, "filter_format": {"s": "SFdJTw=="}, "data_format": {"s": "TkhXQw=="}, "strides": {"list": {"i": ["1", "1", "1", "1"]}}, "num_args": {"i": "1"}, "fused_ops": {"list": {"s": ["Qmlhc0FkZA=="]}}, "TArgs": {"list": {"type": ["DT_FLOAT"]}}, "padding": {"s": "U0FNRQ=="}, "use_cudnn_on_gpu": {"b": true}, "leakyrelu_alpha": {"f": 0.2}, "epsilon": {"f": 0.0}, "T": {"type": "DT_FLOAT"}, "explicit_paddings": {"list": {}}, "dilations": {"list": {"i": ["1", "1", "1", "1"]}}}}, {"name": "model_11/tf.math.sigmoid/Sigmoid", "op": "Sigmoid", "input": ["model_11/tf.math.add/Add"], "attr": {"_input_shapes": {"list": {"shape": [{"dim": [{"size": "1"}, {"size": "-7"}, {"size": "-8"}, {"size": "16"}]}]}}, "T": {"type": "DT_FLOAT"}}}, {"name": "model_11/tf.math.multiply_3/Mul", "op": "Mul", "input": ["model_11/tf.math.add/Add", "model_11/tf.math.sigmoid/Sigmoid"], "attr": {"T": {"type": "DT_FLOAT"}}}, {"name": "model_11/tf.nn.max_pool2d/MaxPool2d", "op": "MaxPool", "input": ["model_11/tf.math.multiply_3/Mul"], "attr": {"padding": {"s": "VkFMSUQ="}, "data_format": {"s": "TkhXQw=="}, "T": {"type": "DT_FLOAT"}, "explicit_paddings": {"list": {}}, "ksize": {"list": {"i": ["1", "2", "2", "1"]}}, "strides": {"list": {"i": ["1", "2", "2", "1"]}}}}, {"name": "model_11/tf.math.add_1/Add", "op": "_FusedConv2D", "input": ["model_11/tf.nn.max_pool2d/MaxPool2d", "model_11/tf.nn.convolution_1/convolution/filter", "model_11/tf.math.add_1/Add/y"], "device": "/device:CPU:0", "attr": {"num_host_args": {"i": "0"}, "_input_shapes": {"list": {"shape": [{"dim": [{"size": "1"}, {"size": "-10"}, {"size": "-11"}, {"size": "16"}]}, {"dim": [{"size": "3"}, {"size": "3"}, {"size": "16"}, {"size": "32"}]}]}}, "filter_format": {"s": "SFdJTw=="}, "data_format": {"s": "TkhXQw=="}, "strides": {"list": {"i": ["1", "1", "1", "1"]}}, "num_args": {"i": "1"}, "fused_ops": {"list": {"s": ["Qmlhc0FkZA=="]}}, "TArgs": {"list": {"type": ["DT_FLOAT"]}}, "padding": {"s": "U0FNRQ=="}, "use_cudnn_on_gpu": {"b": true}, "leakyrelu_alpha": {"f": 0.2}, "epsilon": {"f": 0.0}, "T": {"type": "DT_FLOAT"}, "explicit_paddings": {"list": {}}, "dilations": {"list": {"i": ["1", "1", "1", "1"]}}}}, {"name": "model_11/tf.math.sigmoid_1/Sigmoid", "op": "Sigmoid", "input": ["model_11/tf.math.add_1/Add"], "attr": {"_input_shapes": {"list": {"shape": [{"dim": [{"size": "1"}, {"size": "-10"}, {"size": "-11"}, {"size": "32"}]}]}}, "T": {"type": "DT_FLOAT"}}}, {"name": "model_11/tf.math.multiply_7/Mul", "op": "Mul", "input": ["model_11/tf.math.add_1/Add", "model_11/tf.math.sigmoid_1/Sigmoid"], "attr": {"T": {"type": "DT_FLOAT"}}}, {"name": "model_11/tf.nn.max_pool2d_1/MaxPool2d", "op": "MaxPool", "input": ["model_11/tf.math.multiply_7/Mul"], "attr": {"ksize": {"list": {"i": ["1", "2", "2", "1"]}}, "data_format": {"s": "TkhXQw=="}, "T": {"type": "DT_FLOAT"}, "explicit_paddings": {"list": {}}, "padding": {"s": "VkFMSUQ="}, "strides": {"list": {"i": ["1", "2", "2", "1"]}}}}, {"name": "model_11/tf.math.add_2/Add", "op": "_FusedConv2D", "input": ["model_11/tf.nn.max_pool2d_1/MaxPool2d", "model_11/tf.nn.convolution_2/convolution/filter", "model_11/tf.math.add_2/Add/y"], "device": "/device:CPU:0", "attr": {"num_host_args": {"i": "0"}, "_input_shapes": {"list": {"shape": [{"dim": [{"size": "1"}, {"size": "-12"}, {"size": "-13"}, {"size": "32"}]}, {"dim": [{"size": "3"}, {"size": "3"}, {"size": "32"}, {"size": "64"}]}]}}, "filter_format": {"s": "SFdJTw=="}, "data_format": {"s": "TkhXQw=="}, "fused_ops": {"list": {"s": ["Qmlhc0FkZA=="]}}, "num_args": {"i": "1"}, "strides": {"list": {"i": ["1", "1", "1", "1"]}}, "TArgs": {"list": {"type": ["DT_FLOAT"]}}, "padding": {"s": "U0FNRQ=="}, "use_cudnn_on_gpu": {"b": true}, "leakyrelu_alpha": {"f": 0.2}, "epsilon": {"f": 0.0}, "T": {"type": "DT_FLOAT"}, "explicit_paddings": {"list": {}}, "dilations": {"list": {"i": ["1", "1", "1", "1"]}}}}, {"name": "model_11/tf.math.sigmoid_2/Sigmoid", "op": "Sigmoid", "input": ["model_11/tf.math.add_2/Add"], "attr": {"_input_shapes": {"list": {"shape": [{"dim": [{"size": "1"}, {"size": "-12"}, {"size": "-13"}, {"size": "64"}]}]}}, "T": {"type": "DT_FLOAT"}}}, {"name": "model_11/tf.math.multiply_11/Mul", "op": "Mul", "input": ["model_11/tf.math.add_2/Add", "model_11/tf.math.sigmoid_2/Sigmoid"], "attr": {"T": {"type": "DT_FLOAT"}}}, {"name": "model_11/tf.nn.max_pool2d_2/MaxPool2d", "op": "MaxPool", "input": ["model_11/tf.math.multiply_11/Mul"], "attr": {"padding": {"s": "VkFMSUQ="}, "data_format": {"s": "TkhXQw=="}, "T": {"type": "DT_FLOAT"}, "explicit_paddings": {"list": {}}, "ksize": {"list": {"i": ["1", "2", "2", "1"]}}, "strides": {"list": {"i": ["1", "2", "2", "1"]}}}}, {"name": "model_11/tf.math.add_3/Add", "op": "_FusedConv2D", "input": ["model_11/tf.nn.max_pool2d_2/MaxPool2d", "model_11/tf.nn.convolution_3/convolution/filter", "model_11/tf.math.add_3/Add/y"], "device": "/device:CPU:0", "attr": {"num_host_args": {"i": "0"}, "_input_shapes": {"list": {"shape": [{"dim": [{"size": "1"}, {"size": "-14"}, {"size": "-15"}, {"size": "64"}]}, {"dim": [{"size": "3"}, {"size": "3"}, {"size": "64"}, {"size": "128"}]}]}}, "filter_format": {"s": "SFdJTw=="}, "data_format": {"s": "TkhXQw=="}, "strides": {"list": {"i": ["1", "1", "1", "1"]}}, "num_args": {"i": "1"}, "fused_ops": {"list": {"s": ["Qmlhc0FkZA=="]}}, "TArgs": {"list": {"type": ["DT_FLOAT"]}}, "padding": {"s": "U0FNRQ=="}, "use_cudnn_on_gpu": {"b": true}, "leakyrelu_alpha": {"f": 0.2}, "epsilon": {"f": 0.0}, "T": {"type": "DT_FLOAT"}, "explicit_paddings": {"list": {}}, "dilations": {"list": {"i": ["1", "1", "1", "1"]}}}}, {"name": "model_11/tf.math.sigmoid_3/Sigmoid", "op": "Sigmoid", "input": ["model_11/tf.math.add_3/Add"], "attr": {"_input_shapes": {"list": {"shape": [{"dim": [{"size": "1"}, {"size": "-14"}, {"size": "-15"}, {"size": "128"}]}]}}, "T": {"type": "DT_FLOAT"}}}, {"name": "model_11/tf.math.multiply_15/Mul", "op": "Mul", "input": ["model_11/tf.math.add_3/Add", "model_11/tf.math.sigmoid_3/Sigmoid"], "attr": {"T": {"type": "DT_FLOAT"}}}, {"name": "model_11/tf.nn.max_pool2d_3/MaxPool2d", "op": "MaxPool", "input": ["model_11/tf.math.multiply_15/Mul"], "attr": {"padding": {"s": "VkFMSUQ="}, "data_format": {"s": "TkhXQw=="}, "T": {"type": "DT_FLOAT"}, "explicit_paddings": {"list": {}}, "ksize": {"list": {"i": ["1", "2", "2", "1"]}}, "strides": {"list": {"i": ["1", "2", "2", "1"]}}}}, {"name": "model_11/tf.math.add_4/Add", "op": "_FusedConv2D", "input": ["model_11/tf.nn.max_pool2d_3/MaxPool2d", "model_11/tf.nn.convolution_4/convolution/filter", "model_11/tf.math.add_4/Add/y"], "device": "/device:CPU:0", "attr": {"num_host_args": {"i": "0"}, "data_format": {"s": "TkhXQw=="}, "filter_format": {"s": "SFdJTw=="}, "_input_shapes": {"list": {"shape": [{"dim": [{"size": "1"}, {"size": "40"}, {"size": "40"}, {"size": "128"}]}, {"dim": [{"size": "3"}, {"size": "3"}, {"size": "128"}, {"size": "256"}]}]}}, "fused_ops": {"list": {"s": ["Qmlhc0FkZA=="]}}, "num_args": {"i": "1"}, "strides": {"list": {"i": ["1", "1", "1", "1"]}}, "TArgs": {"list": {"type": ["DT_FLOAT"]}}, "padding": {"s": "U0FNRQ=="}, "use_cudnn_on_gpu": {"b": true}, "leakyrelu_alpha": {"f": 0.2}, "epsilon": {"f": 0.0}, "T": {"type": "DT_FLOAT"}, "explicit_paddings": {"list": {}}, "dilations": {"list": {"i": ["1", "1", "1", "1"]}}}}, {"name": "model_11/tf.math.sigmoid_4/Sigmoid", "op": "Sigmoid", "input": ["model_11/tf.math.add_4/Add"], "attr": {"_input_shapes": {"list": {"shape": [{"dim": [{"size": "1"}, {"size": "40"}, {"size": "40"}, {"size": "256"}]}]}}, "T": {"type": "DT_FLOAT"}}}, {"name": "model_11/tf.math.multiply_19/Mul", "op": "Mul", "input": ["model_11/tf.math.add_4/Add", "model_11/tf.math.sigmoid_4/Sigmoid"], "attr": {"T": {"type": "DT_FLOAT"}}}, {"name": "model_11/tf.nn.max_pool2d_4/MaxPool2d", "op": "MaxPool", "input": ["model_11/tf.math.multiply_19/Mul"], "attr": {"ksize": {"list": {"i": ["1", "2", "2", "1"]}}, "data_format": {"s": "TkhXQw=="}, "T": {"type": "DT_FLOAT"}, "explicit_paddings": {"list": {}}, "padding": {"s": "VkFMSUQ="}, "strides": {"list": {"i": ["1", "2", "2", "1"]}}}}, {"name": "model_11/tf.math.add_5/Add", "op": "_FusedConv2D", "input": ["model_11/tf.nn.max_pool2d_4/MaxPool2d", "model_11/tf.nn.convolution_5/convolution/filter", "model_11/tf.math.add_5/Add/y"], "device": "/device:CPU:0", "attr": {"num_host_args": {"i": "0"}, "_input_shapes": {"list": {"shape": [{"dim": [{"size": "1"}, {"size": "-16"}, {"size": "-17"}, {"size": "256"}]}, {"dim": [{"size": "3"}, {"size": "3"}, {"size": "256"}, {"size": "512"}]}]}}, "filter_format": {"s": "SFdJTw=="}, "data_format": {"s": "TkhXQw=="}, "fused_ops": {"list": {"s": ["Qmlhc0FkZA=="]}}, "num_args": {"i": "1"}, "strides": {"list": {"i": ["1", "1", "1", "1"]}}, "TArgs": {"list": {"type": ["DT_FLOAT"]}}, "padding": {"s": "U0FNRQ=="}, "use_cudnn_on_gpu": {"b": true}, "leakyrelu_alpha": {"f": 0.2}, "epsilon": {"f": 0.0}, "T": {"type": "DT_FLOAT"}, "explicit_paddings": {"list": {}}, "dilations": {"list": {"i": ["1", "1", "1", "1"]}}}}, {"name": "model_11/tf.math.sigmoid_5/Sigmoid", "op": "Sigmoid", "input": ["model_11/tf.math.add_5/Add"], "attr": {"_input_shapes": {"list": {"shape": [{"dim": [{"size": "1"}, {"size": "-16"}, {"size": "-17"}, {"size": "512"}]}]}}, "T": {"type": "DT_FLOAT"}}}, {"name": "model_11/tf.math.multiply_23/Mul", "op": "Mul", "input": ["model_11/tf.math.add_5/Add", "model_11/tf.math.sigmoid_5/Sigmoid"], "attr": {"T": {"type": "DT_FLOAT"}}}, {"name": "model_11/tf.compat.v1.pad/wa/model.11/Pad", "op": "Pad", "input": ["model_11/tf.math.multiply_23/Mul", "model_11/tf.compat.v1.pad/wa/model.11/Pad/paddings"], "attr": {"Tpaddings": {"type": "DT_INT32"}, "T": {"type": "DT_FLOAT"}}}, {"name": "model_11/tf.compat.v1.nn.pool/max_pool", "op": "MaxPool", "input": ["model_11/tf.compat.v1.pad/wa/model.11/Pad"], "attr": {"padding": {"s": "VkFMSUQ="}, "data_format": {"s": "TkhXQw=="}, "T": {"type": "DT_FLOAT"}, "explicit_paddings": {"list": {}}, "ksize": {"list": {"i": ["1", "2", "2", "1"]}}, "strides": {"list": {"i": ["1", "1", "1", "1"]}}}}, {"name": "model_11/tf.math.add_6/Add", "op": "_FusedConv2D", "input": ["model_11/tf.compat.v1.nn.pool/max_pool", "model_11/tf.nn.convolution_6/convolution/filter", "model_11/tf.math.add_6/Add/y"], "device": "/device:CPU:0", "attr": {"num_host_args": {"i": "0"}, "_input_shapes": {"list": {"shape": [{"dim": [{"size": "1"}, {"size": "-3"}, {"size": "-4"}, {"size": "512"}]}, {"dim": [{"size": "3"}, {"size": "3"}, {"size": "512"}, {"size": "1024"}]}]}}, "filter_format": {"s": "SFdJTw=="}, "data_format": {"s": "TkhXQw=="}, "strides": {"list": {"i": ["1", "1", "1", "1"]}}, "num_args": {"i": "1"}, "fused_ops": {"list": {"s": ["Qmlhc0FkZA=="]}}, "TArgs": {"list": {"type": ["DT_FLOAT"]}}, "padding": {"s": "U0FNRQ=="}, "use_cudnn_on_gpu": {"b": true}, "leakyrelu_alpha": {"f": 0.2}, "epsilon": {"f": 0.0}, "T": {"type": "DT_FLOAT"}, "explicit_paddings": {"list": {}}, "dilations": {"list": {"i": ["1", "1", "1", "1"]}}}}, {"name": "model_11/tf.math.sigmoid_6/Sigmoid", "op": "Sigmoid", "input": ["model_11/tf.math.add_6/Add"], "attr": {"_input_shapes": {"list": {"shape": [{"dim": [{"size": "1"}, {"size": "-3"}, {"size": "-4"}, {"size": "1024"}]}]}}, "T": {"type": "DT_FLOAT"}}}, {"name": "model_11/tf.math.multiply_27/Mul", "op": "Mul", "input": ["model_11/tf.math.add_6/Add", "model_11/tf.math.sigmoid_6/Sigmoid"], "attr": {"T": {"type": "DT_FLOAT"}}}, {"name": "model_11/tf.math.add_7/Add", "op": "_FusedConv2D", "input": ["model_11/tf.math.multiply_27/Mul", "model_11/tf.nn.convolution_7/convolution/filter", "model_11/tf.math.add_7/Add/y"], "device": "/device:CPU:0", "attr": {"num_host_args": {"i": "0"}, "_input_shapes": {"list": {"shape": [{"dim": [{"size": "1"}, {"size": "-3"}, {"size": "-4"}, {"size": "1024"}]}, {"dim": [{"size": "1"}, {"size": "1"}, {"size": "1024"}, {"size": "256"}]}]}}, "filter_format": {"s": "SFdJTw=="}, "data_format": {"s": "TkhXQw=="}, "strides": {"list": {"i": ["1", "1", "1", "1"]}}, "num_args": {"i": "1"}, "fused_ops": {"list": {"s": ["Qmlhc0FkZA=="]}}, "TArgs": {"list": {"type": ["DT_FLOAT"]}}, "padding": {"s": "U0FNRQ=="}, "use_cudnn_on_gpu": {"b": true}, "leakyrelu_alpha": {"f": 0.2}, "epsilon": {"f": 0.0}, "T": {"type": "DT_FLOAT"}, "explicit_paddings": {"list": {}}, "dilations": {"list": {"i": ["1", "1", "1", "1"]}}}}, {"name": "model_11/tf.math.sigmoid_7/Sigmoid", "op": "Sigmoid", "input": ["model_11/tf.math.add_7/Add"], "attr": {"_input_shapes": {"list": {"shape": [{"dim": [{"size": "1"}, {"size": "-3"}, {"size": "-4"}, {"size": "256"}]}]}}, "T": {"type": "DT_FLOAT"}}}, {"name": "model_11/tf.math.multiply_31/Mul", "op": "Mul", "input": ["model_11/tf.math.add_7/Add", "model_11/tf.math.sigmoid_7/Sigmoid"], "attr": {"T": {"type": "DT_FLOAT"}}}, {"name": "model_11/tf.math.add_9/Add", "op": "_FusedConv2D", "input": ["model_11/tf.math.multiply_31/Mul", "model_11/tf.nn.convolution_9/convolution/filter", "model_11/tf.math.add_9/Add/y"], "device": "/device:CPU:0", "attr": {"num_host_args": {"i": "0"}, "_input_shapes": {"list": {"shape": [{"dim": [{"size": "1"}, {"size": "-3"}, {"size": "-4"}, {"size": "256"}]}, {"dim": [{"size": "1"}, {"size": "1"}, {"size": "256"}, {"size": "128"}]}]}}, "filter_format": {"s": "SFdJTw=="}, "data_format": {"s": "TkhXQw=="}, "strides": {"list": {"i": ["1", "1", "1", "1"]}}, "num_args": {"i": "1"}, "fused_ops": {"list": {"s": ["Qmlhc0FkZA=="]}}, "TArgs": {"list": {"type": ["DT_FLOAT"]}}, "padding": {"s": "U0FNRQ=="}, "use_cudnn_on_gpu": {"b": true}, "leakyrelu_alpha": {"f": 0.2}, "epsilon": {"f": 0.0}, "T": {"type": "DT_FLOAT"}, "explicit_paddings": {"list": {}}, "dilations": {"list": {"i": ["1", "1", "1", "1"]}}}}, {"name": "model_11/tf.math.add_8/Add", "op": "_FusedConv2D", "input": ["model_11/tf.math.multiply_31/Mul", "model_11/tf.nn.convolution_8/convolution/filter", "model_11/tf.math.add_8/Add/y"], "device": "/device:CPU:0", "attr": {"num_host_args": {"i": "0"}, "_input_shapes": {"list": {"shape": [{"dim": [{"size": "1"}, {"size": "-3"}, {"size": "-4"}, {"size": "256"}]}, {"dim": [{"size": "3"}, {"size": "3"}, {"size": "256"}, {"size": "512"}]}]}}, "filter_format": {"s": "SFdJTw=="}, "data_format": {"s": "TkhXQw=="}, "fused_ops": {"list": {"s": ["Qmlhc0FkZA=="]}}, "num_args": {"i": "1"}, "strides": {"list": {"i": ["1", "1", "1", "1"]}}, "TArgs": {"list": {"type": ["DT_FLOAT"]}}, "padding": {"s": "U0FNRQ=="}, "use_cudnn_on_gpu": {"b": true}, "leakyrelu_alpha": {"f": 0.2}, "epsilon": {"f": 0.0}, "T": {"type": "DT_FLOAT"}, "explicit_paddings": {"list": {}}, "dilations": {"list": {"i": ["1", "1", "1", "1"]}}}}, {"name": "model_11/tf.math.sigmoid_9/Sigmoid", "op": "Sigmoid", "input": ["model_11/tf.math.add_9/Add"], "attr": {"_input_shapes": {"list": {"shape": [{"dim": [{"size": "1"}, {"size": "-3"}, {"size": "-4"}, {"size": "128"}]}]}}, "T": {"type": "DT_FLOAT"}}}, {"name": "model_11/tf.math.sigmoid_8/Sigmoid", "op": "Sigmoid", "input": ["model_11/tf.math.add_8/Add"], "attr": {"_input_shapes": {"list": {"shape": [{"dim": [{"size": "1"}, {"size": "-3"}, {"size": "-4"}, {"size": "512"}]}]}}, "T": {"type": "DT_FLOAT"}}}, {"name": "model_11/tf.math.multiply_39/Mul", "op": "Mul", "input": ["model_11/tf.math.add_9/Add", "model_11/tf.math.sigmoid_9/Sigmoid"], "attr": {"T": {"type": "DT_FLOAT"}}}, {"name": "model_11/tf.math.multiply_35/Mul", "op": "Mul", "input": ["model_11/tf.math.add_8/Add", "model_11/tf.math.sigmoid_8/Sigmoid"], "attr": {"T": {"type": "DT_FLOAT"}}}, {"name": "model_11/tf.image.resize/resize/ResizeNearestNeighbor", "op": "ResizeNearestNeighbor", "input": ["model_11/tf.math.multiply_39/Mul", "model_11/tf.image.resize/resize/size"], "attr": {"T": {"type": "DT_FLOAT"}, "align_corners": {"b": false}, "half_pixel_centers": {"b": true}}}, {"name": "model_11/tf.math.add_10/Add", "op": "_FusedConv2D", "input": ["model_11/tf.math.multiply_35/Mul", "model_11/tf.nn.convolution_10/convolution/filter", "model_11/tf.math.add_10/Add/y"], "device": "/device:CPU:0", "attr": {"num_host_args": {"i": "0"}, "_input_shapes": {"list": {"shape": [{"dim": [{"size": "1"}, {"size": "-3"}, {"size": "-4"}, {"size": "512"}]}, {"dim": [{"size": "3"}, {"size": "3"}, {"size": "512"}, {"size": "64"}]}]}}, "filter_format": {"s": "SFdJTw=="}, "data_format": {"s": "TkhXQw=="}, "fused_ops": {"list": {"s": ["Qmlhc0FkZA=="]}}, "num_args": {"i": "1"}, "strides": {"list": {"i": ["1", "1", "1", "1"]}}, "TArgs": {"list": {"type": ["DT_FLOAT"]}}, "padding": {"s": "U0FNRQ=="}, "use_cudnn_on_gpu": {"b": true}, "leakyrelu_alpha": {"f": 0.2}, "epsilon": {"f": 0.0}, "T": {"type": "DT_FLOAT"}, "explicit_paddings": {"list": {}}, "dilations": {"list": {"i": ["1", "1", "1", "1"]}}}}, {"name": "model_11/tf.math.add_11/Add", "op": "_FusedConv2D", "input": ["model_11/tf.math.multiply_35/Mul", "model_11/tf.nn.convolution_11/convolution/filter", "model_11/tf.math.add_11/Add/y"], "device": "/device:CPU:0", "attr": {"num_host_args": {"i": "0"}, "data_format": {"s": "TkhXQw=="}, "filter_format": {"s": "SFdJTw=="}, "_input_shapes": {"list": {"shape": [{"dim": [{"size": "1"}, {"size": "-3"}, {"size": "-4"}, {"size": "512"}]}, {"dim": [{"size": "3"}, {"size": "3"}, {"size": "512"}, {"size": "256"}]}]}}, "strides": {"list": {"i": ["1", "1", "1", "1"]}}, "num_args": {"i": "1"}, "fused_ops": {"list": {"s": ["Qmlhc0FkZA=="]}}, "TArgs": {"list": {"type": ["DT_FLOAT"]}}, "padding": {"s": "U0FNRQ=="}, "use_cudnn_on_gpu": {"b": true}, "leakyrelu_alpha": {"f": 0.2}, "epsilon": {"f": 0.0}, "T": {"type": "DT_FLOAT"}, "explicit_paddings": {"list": {}}, "dilations": {"list": {"i": ["1", "1", "1", "1"]}}}}, {"name": "model_11/tf.concat/concat", "op": "ConcatV2", "input": ["model_11/tf.image.resize/resize/ResizeNearestNeighbor", "model_11/tf.math.multiply_19/Mul", "model_11/tf.concat/concat/axis"], "attr": {"N": {"i": "2"}, "Tidx": {"type": "DT_INT32"}, "T": {"type": "DT_FLOAT"}}}, {"name": "model_11/tf.math.sigmoid_10/Sigmoid", "op": "Sigmoid", "input": ["model_11/tf.math.add_10/Add"], "attr": {"_input_shapes": {"list": {"shape": [{"dim": [{"size": "1"}, {"size": "-3"}, {"size": "-4"}, {"size": "64"}]}]}}, "T": {"type": "DT_FLOAT"}}}, {"name": "model_11/tf.math.sigmoid_11/Sigmoid", "op": "Sigmoid", "input": ["model_11/tf.math.add_11/Add"], "attr": {"_input_shapes": {"list": {"shape": [{"dim": [{"size": "1"}, {"size": "-3"}, {"size": "-4"}, {"size": "256"}]}]}}, "T": {"type": "DT_FLOAT"}}}, {"name": "model_11/tf.math.add_12/Add", "op": "_FusedConv2D", "input": ["model_11/tf.concat/concat", "model_11/tf.nn.convolution_12/convolution/filter", "model_11/tf.math.add_12/Add/y"], "device": "/device:CPU:0", "attr": {"num_host_args": {"i": "0"}, "_input_shapes": {"list": {"shape": [{"dim": [{"size": "1"}, {"size": "40"}, {"size": "40"}, {"size": "384"}]}, {"dim": [{"size": "3"}, {"size": "3"}, {"size": "384"}, {"size": "256"}]}]}}, "filter_format": {"s": "SFdJTw=="}, "data_format": {"s": "TkhXQw=="}, "strides": {"list": {"i": ["1", "1", "1", "1"]}}, "num_args": {"i": "1"}, "fused_ops": {"list": {"s": ["Qmlhc0FkZA=="]}}, "TArgs": {"list": {"type": ["DT_FLOAT"]}}, "padding": {"s": "U0FNRQ=="}, "use_cudnn_on_gpu": {"b": true}, "leakyrelu_alpha": {"f": 0.2}, "epsilon": {"f": 0.0}, "T": {"type": "DT_FLOAT"}, "explicit_paddings": {"list": {}}, "dilations": {"list": {"i": ["1", "1", "1", "1"]}}}}, {"name": "model_11/tf.math.multiply_43/Mul", "op": "Mul", "input": ["model_11/tf.math.add_10/Add", "model_11/tf.math.sigmoid_10/Sigmoid"], "attr": {"T": {"type": "DT_FLOAT"}}}, {"name": "model_11/tf.math.multiply_47/Mul", "op": "Mul", "input": ["model_11/tf.math.add_11/Add", "model_11/tf.math.sigmoid_11/Sigmoid"], "attr": {"T": {"type": "DT_FLOAT"}}}, {"name": "model_11/tf.math.sigmoid_12/Sigmoid", "op": "Sigmoid", "input": ["model_11/tf.math.add_12/Add"], "attr": {"_input_shapes": {"list": {"shape": [{"dim": [{"size": "1"}, {"size": "40"}, {"size": "40"}, {"size": "256"}]}]}}, "T": {"type": "DT_FLOAT"}}}, {"name": "model_11/tf.math.add_13/Add", "op": "_FusedConv2D", "input": ["model_11/tf.math.multiply_43/Mul", "model_11/tf.nn.convolution_13/convolution/filter", "model_11/tf.math.add_13/Add/y"], "device": "/device:CPU:0", "attr": {"num_host_args": {"i": "0"}, "_input_shapes": {"list": {"shape": [{"dim": [{"size": "1"}, {"size": "-3"}, {"size": "-4"}, {"size": "64"}]}, {"dim": [{"size": "3"}, {"size": "3"}, {"size": "64"}, {"size": "64"}]}]}}, "filter_format": {"s": "SFdJTw=="}, "data_format": {"s": "TkhXQw=="}, "strides": {"list": {"i": ["1", "1", "1", "1"]}}, "num_args": {"i": "1"}, "fused_ops": {"list": {"s": ["Qmlhc0FkZA=="]}}, "TArgs": {"list": {"type": ["DT_FLOAT"]}}, "padding": {"s": "U0FNRQ=="}, "use_cudnn_on_gpu": {"b": true}, "leakyrelu_alpha": {"f": 0.2}, "epsilon": {"f": 0.0}, "T": {"type": "DT_FLOAT"}, "explicit_paddings": {"list": {}}, "dilations": {"list": {"i": ["1", "1", "1", "1"]}}}}, {"name": "model_11/tf.math.add_14/Add", "op": "_FusedConv2D", "input": ["model_11/tf.math.multiply_47/Mul", "model_11/tf.nn.convolution_14/convolution/filter", "model_11/tf.math.add_14/Add/y"], "device": "/device:CPU:0", "attr": {"num_host_args": {"i": "0"}, "data_format": {"s": "TkhXQw=="}, "filter_format": {"s": "SFdJTw=="}, "_input_shapes": {"list": {"shape": [{"dim": [{"size": "1"}, {"size": "-3"}, {"size": "-4"}, {"size": "256"}]}, {"dim": [{"size": "3"}, {"size": "3"}, {"size": "256"}, {"size": "256"}]}]}}, "fused_ops": {"list": {"s": ["Qmlhc0FkZA=="]}}, "num_args": {"i": "1"}, "strides": {"list": {"i": ["1", "1", "1", "1"]}}, "TArgs": {"list": {"type": ["DT_FLOAT"]}}, "padding": {"s": "U0FNRQ=="}, "use_cudnn_on_gpu": {"b": true}, "leakyrelu_alpha": {"f": 0.2}, "epsilon": {"f": 0.0}, "T": {"type": "DT_FLOAT"}, "explicit_paddings": {"list": {}}, "dilations": {"list": {"i": ["1", "1", "1", "1"]}}}}, {"name": "model_11/tf.math.multiply_51/Mul", "op": "Mul", "input": ["model_11/tf.math.add_12/Add", "model_11/tf.math.sigmoid_12/Sigmoid"], "attr": {"T": {"type": "DT_FLOAT"}}}, {"name": "model_11/tf.math.sigmoid_13/Sigmoid", "op": "Sigmoid", "input": ["model_11/tf.math.add_13/Add"], "attr": {"_input_shapes": {"list": {"shape": [{"dim": [{"size": "1"}, {"size": "-3"}, {"size": "-4"}, {"size": "64"}]}]}}, "T": {"type": "DT_FLOAT"}}}, {"name": "model_11/tf.math.sigmoid_14/Sigmoid", "op": "Sigmoid", "input": ["model_11/tf.math.add_14/Add"], "attr": {"_input_shapes": {"list": {"shape": [{"dim": [{"size": "1"}, {"size": "-3"}, {"size": "-4"}, {"size": "256"}]}]}}, "T": {"type": "DT_FLOAT"}}}, {"name": "model_11/tf.math.add_15/Add", "op": "_FusedConv2D", "input": ["model_11/tf.math.multiply_51/Mul", "model_11/tf.nn.convolution_15/convolution/filter", "model_11/tf.math.add_15/Add/y"], "device": "/device:CPU:0", "attr": {"num_host_args": {"i": "0"}, "data_format": {"s": "TkhXQw=="}, "filter_format": {"s": "SFdJTw=="}, "_input_shapes": {"list": {"shape": [{"dim": [{"size": "1"}, {"size": "40"}, {"size": "40"}, {"size": "256"}]}, {"dim": [{"size": "3"}, {"size": "3"}, {"size": "256"}, {"size": "64"}]}]}}, "fused_ops": {"list": {"s": ["Qmlhc0FkZA=="]}}, "num_args": {"i": "1"}, "strides": {"list": {"i": ["1", "1", "1", "1"]}}, "TArgs": {"list": {"type": ["DT_FLOAT"]}}, "padding": {"s": "U0FNRQ=="}, "use_cudnn_on_gpu": {"b": true}, "leakyrelu_alpha": {"f": 0.2}, "epsilon": {"f": 0.0}, "T": {"type": "DT_FLOAT"}, "explicit_paddings": {"list": {}}, "dilations": {"list": {"i": ["1", "1", "1", "1"]}}}}, {"name": "model_11/tf.math.add_16/Add", "op": "_FusedConv2D", "input": ["model_11/tf.math.multiply_51/Mul", "model_11/tf.nn.convolution_16/convolution/filter", "model_11/tf.math.add_16/Add/y"], "device": "/device:CPU:0", "attr": {"num_host_args": {"i": "0"}, "_input_shapes": {"list": {"shape": [{"dim": [{"size": "1"}, {"size": "40"}, {"size": "40"}, {"size": "256"}]}, {"dim": [{"size": "3"}, {"size": "3"}, {"size": "256"}, {"size": "256"}]}]}}, "filter_format": {"s": "SFdJTw=="}, "data_format": {"s": "TkhXQw=="}, "strides": {"list": {"i": ["1", "1", "1", "1"]}}, "num_args": {"i": "1"}, "fused_ops": {"list": {"s": ["Qmlhc0FkZA=="]}}, "TArgs": {"list": {"type": ["DT_FLOAT"]}}, "padding": {"s": "U0FNRQ=="}, "use_cudnn_on_gpu": {"b": true}, "leakyrelu_alpha": {"f": 0.2}, "epsilon": {"f": 0.0}, "T": {"type": "DT_FLOAT"}, "explicit_paddings": {"list": {}}, "dilations": {"list": {"i": ["1", "1", "1", "1"]}}}}, {"name": "model_11/tf.math.multiply_55/Mul", "op": "Mul", "input": ["model_11/tf.math.add_13/Add", "model_11/tf.math.sigmoid_13/Sigmoid"], "attr": {"T": {"type": "DT_FLOAT"}}}, {"name": "model_11/tf.math.multiply_59/Mul", "op": "Mul", "input": ["model_11/tf.math.add_14/Add", "model_11/tf.math.sigmoid_14/Sigmoid"], "attr": {"T": {"type": "DT_FLOAT"}}}, {"name": "model_11/tf.math.sigmoid_15/Sigmoid", "op": "Sigmoid", "input": ["model_11/tf.math.add_15/Add"], "attr": {"_input_shapes": {"list": {"shape": [{"dim": [{"size": "1"}, {"size": "40"}, {"size": "40"}, {"size": "64"}]}]}}, "T": {"type": "DT_FLOAT"}}}, {"name": "model_11/tf.math.sigmoid_16/Sigmoid", "op": "Sigmoid", "input": ["model_11/tf.math.add_16/Add"], "attr": {"_input_shapes": {"list": {"shape": [{"dim": [{"size": "1"}, {"size": "40"}, {"size": "40"}, {"size": "256"}]}]}}, "T": {"type": "DT_FLOAT"}}}, {"name": "model_11/tf.math.add_17/Add", "op": "_FusedConv2D", "input": ["model_11/tf.math.multiply_55/Mul", "model_11/tf.nn.convolution_17/convolution/filter", "model_11/tf.math.add_17/Add/y"], "device": "/device:CPU:0", "attr": {"num_host_args": {"i": "0"}, "data_format": {"s": "TkhXQw=="}, "filter_format": {"s": "SFdJTw=="}, "_input_shapes": {"list": {"shape": [{"dim": [{"size": "1"}, {"size": "-3"}, {"size": "-4"}, {"size": "64"}]}, {"dim": [{"size": "1"}, {"size": "1"}, {"size": "64"}, {"size": "64"}]}]}}, "fused_ops": {"list": {"s": ["Qmlhc0FkZA=="]}}, "num_args": {"i": "1"}, "strides": {"list": {"i": ["1", "1", "1", "1"]}}, "TArgs": {"list": {"type": ["DT_FLOAT"]}}, "padding": {"s": "U0FNRQ=="}, "use_cudnn_on_gpu": {"b": true}, "leakyrelu_alpha": {"f": 0.2}, "epsilon": {"f": 0.0}, "T": {"type": "DT_FLOAT"}, "explicit_paddings": {"list": {}}, "dilations": {"list": {"i": ["1", "1", "1", "1"]}}}}, {"name": "model_11/tf.math.add_18/Add", "op": "_FusedConv2D", "input": ["model_11/tf.math.multiply_59/Mul", "model_11/tf.nn.convolution_18/convolution/filter", "model_11/tf.math.add_18/Add/y"], "device": "/device:CPU:0", "attr": {"num_host_args": {"i": "0"}, "data_format": {"s": "TkhXQw=="}, "filter_format": {"s": "SFdJTw=="}, "_input_shapes": {"list": {"shape": [{"dim": [{"size": "1"}, {"size": "-3"}, {"size": "-4"}, {"size": "256"}]}, {"dim": [{"size": "1"}, {"size": "1"}, {"size": "256"}, {"size": "28"}]}]}}, "strides": {"list": {"i": ["1", "1", "1", "1"]}}, "num_args": {"i": "1"}, "fused_ops": {"list": {"s": ["Qmlhc0FkZA=="]}}, "TArgs": {"list": {"type": ["DT_FLOAT"]}}, "padding": {"s": "U0FNRQ=="}, "use_cudnn_on_gpu": {"b": true}, "leakyrelu_alpha": {"f": 0.2}, "epsilon": {"f": 0.0}, "T": {"type": "DT_FLOAT"}, "explicit_paddings": {"list": {}}, "dilations": {"list": {"i": ["1", "1", "1", "1"]}}}}, {"name": "model_11/tf.math.multiply_63/Mul", "op": "Mul", "input": ["model_11/tf.math.add_15/Add", "model_11/tf.math.sigmoid_15/Sigmoid"], "attr": {"T": {"type": "DT_FLOAT"}}}, {"name": "model_11/tf.math.multiply_67/Mul", "op": "Mul", "input": ["model_11/tf.math.add_16/Add", "model_11/tf.math.sigmoid_16/Sigmoid"], "attr": {"T": {"type": "DT_FLOAT"}}}, {"name": "model_11/tf.concat_1/concat", "op": "ConcatV2", "input": ["model_11/tf.math.add_17/Add", "model_11/tf.math.add_18/Add", "model_11/tf.concat_1/concat/axis"], "attr": {"N": {"i": "2"}, "T": {"type": "DT_FLOAT"}, "Tidx": {"type": "DT_INT32"}}}, {"name": "model_11/tf.math.add_19/Add", "op": "_FusedConv2D", "input": ["model_11/tf.math.multiply_63/Mul", "model_11/tf.nn.convolution_19/convolution/filter", "model_11/tf.math.add_19/Add/y"], "device": "/device:CPU:0", "attr": {"num_host_args": {"i": "0"}, "_input_shapes": {"list": {"shape": [{"dim": [{"size": "1"}, {"size": "40"}, {"size": "40"}, {"size": "64"}]}, {"dim": [{"size": "3"}, {"size": "3"}, {"size": "64"}, {"size": "64"}]}]}}, "filter_format": {"s": "SFdJTw=="}, "data_format": {"s": "TkhXQw=="}, "fused_ops": {"list": {"s": ["Qmlhc0FkZA=="]}}, "num_args": {"i": "1"}, "strides": {"list": {"i": ["1", "1", "1", "1"]}}, "TArgs": {"list": {"type": ["DT_FLOAT"]}}, "padding": {"s": "U0FNRQ=="}, "use_cudnn_on_gpu": {"b": true}, "leakyrelu_alpha": {"f": 0.2}, "epsilon": {"f": 0.0}, "T": {"type": "DT_FLOAT"}, "explicit_paddings": {"list": {}}, "dilations": {"list": {"i": ["1", "1", "1", "1"]}}}}, {"name": "model_11/tf.math.add_20/Add", "op": "_FusedConv2D", "input": ["model_11/tf.math.multiply_67/Mul", "model_11/tf.nn.convolution_20/convolution/filter", "model_11/tf.math.add_20/Add/y"], "device": "/device:CPU:0", "attr": {"num_host_args": {"i": "0"}, "data_format": {"s": "TkhXQw=="}, "filter_format": {"s": "SFdJTw=="}, "_input_shapes": {"list": {"shape": [{"dim": [{"size": "1"}, {"size": "40"}, {"size": "40"}, {"size": "256"}]}, {"dim": [{"size": "3"}, {"size": "3"}, {"size": "256"}, {"size": "256"}]}]}}, "strides": {"list": {"i": ["1", "1", "1", "1"]}}, "num_args": {"i": "1"}, "fused_ops": {"list": {"s": ["Qmlhc0FkZA=="]}}, "TArgs": {"list": {"type": ["DT_FLOAT"]}}, "padding": {"s": "U0FNRQ=="}, "use_cudnn_on_gpu": {"b": true}, "leakyrelu_alpha": {"f": 0.2}, "epsilon": {"f": 0.0}, "T": {"type": "DT_FLOAT"}, "explicit_paddings": {"list": {}}, "dilations": {"list": {"i": ["1", "1", "1", "1"]}}}}, {"name": "model_11/tf.compat.v1.transpose_19/transpose", "op": "Transpose", "input": ["model_11/tf.concat_1/concat", "model_11/tf.compat.v1.transpose_19/transpose/perm"], "attr": {"Tperm": {"type": "DT_INT32"}, "_input_shapes": {"list": {"shape": [{"dim": [{"size": "1"}, {"size": "-3"}, {"size": "-4"}, {"size": "92"}]}, {"dim": [{"size": "4"}]}]}}, "T": {"type": "DT_FLOAT"}}}, {"name": "model_11/tf.math.sigmoid_17/Sigmoid", "op": "Sigmoid", "input": ["model_11/tf.math.add_19/Add"], "attr": {"_input_shapes": {"list": {"shape": [{"dim": [{"size": "1"}, {"size": "40"}, {"size": "40"}, {"size": "64"}]}]}}, "T": {"type": "DT_FLOAT"}}}, {"name": "model_11/tf.math.sigmoid_18/Sigmoid", "op": "Sigmoid", "input": ["model_11/tf.math.add_20/Add"], "attr": {"_input_shapes": {"list": {"shape": [{"dim": [{"size": "1"}, {"size": "40"}, {"size": "40"}, {"size": "256"}]}]}}, "T": {"type": "DT_FLOAT"}}}, {"name": "model_11/tf.reshape_2/Reshape", "op": "Reshape", "input": ["model_11/tf.compat.v1.transpose_19/transpose", "model_11/tf.reshape_2/Reshape/shape"], "attr": {"T": {"type": "DT_FLOAT"}, "Tshape": {"type": "DT_INT32"}}}, {"name": "model_11/tf.math.multiply_71/Mul", "op": "Mul", "input": ["model_11/tf.math.add_19/Add", "model_11/tf.math.sigmoid_17/Sigmoid"], "attr": {"T": {"type": "DT_FLOAT"}}}, {"name": "model_11/tf.math.multiply_75/Mul", "op": "Mul", "input": ["model_11/tf.math.add_20/Add", "model_11/tf.math.sigmoid_18/Sigmoid"], "attr": {"T": {"type": "DT_FLOAT"}}}, {"name": "model_11/tf.math.add_21/Add", "op": "_FusedConv2D", "input": ["model_11/tf.math.multiply_71/Mul", "model_11/tf.nn.convolution_21/convolution/filter", "model_11/tf.math.add_21/Add/y"], "device": "/device:CPU:0", "attr": {"num_host_args": {"i": "0"}, "data_format": {"s": "TkhXQw=="}, "filter_format": {"s": "SFdJTw=="}, "_input_shapes": {"list": {"shape": [{"dim": [{"size": "1"}, {"size": "40"}, {"size": "40"}, {"size": "64"}]}, {"dim": [{"size": "1"}, {"size": "1"}, {"size": "64"}, {"size": "64"}]}]}}, "strides": {"list": {"i": ["1", "1", "1", "1"]}}, "num_args": {"i": "1"}, "fused_ops": {"list": {"s": ["Qmlhc0FkZA=="]}}, "TArgs": {"list": {"type": ["DT_FLOAT"]}}, "padding": {"s": "U0FNRQ=="}, "use_cudnn_on_gpu": {"b": true}, "leakyrelu_alpha": {"f": 0.2}, "epsilon": {"f": 0.0}, "T": {"type": "DT_FLOAT"}, "explicit_paddings": {"list": {}}, "dilations": {"list": {"i": ["1", "1", "1", "1"]}}}}, {"name": "model_11/tf.math.add_22/Add", "op": "_FusedConv2D", "input": ["model_11/tf.math.multiply_75/Mul", "model_11/tf.nn.convolution_22/convolution/filter", "model_11/tf.math.add_22/Add/y"], "device": "/device:CPU:0", "attr": {"num_host_args": {"i": "0"}, "_input_shapes": {"list": {"shape": [{"dim": [{"size": "1"}, {"size": "40"}, {"size": "40"}, {"size": "256"}]}, {"dim": [{"size": "1"}, {"size": "1"}, {"size": "256"}, {"size": "28"}]}]}}, "filter_format": {"s": "SFdJTw=="}, "data_format": {"s": "TkhXQw=="}, "fused_ops": {"list": {"s": ["Qmlhc0FkZA=="]}}, "num_args": {"i": "1"}, "strides": {"list": {"i": ["1", "1", "1", "1"]}}, "TArgs": {"list": {"type": ["DT_FLOAT"]}}, "padding": {"s": "U0FNRQ=="}, "use_cudnn_on_gpu": {"b": true}, "leakyrelu_alpha": {"f": 0.2}, "epsilon": {"f": 0.0}, "T": {"type": "DT_FLOAT"}, "explicit_paddings": {"list": {}}, "dilations": {"list": {"i": ["1", "1", "1", "1"]}}}}, {"name": "model_11/tf.concat_2/concat", "op": "ConcatV2", "input": ["model_11/tf.math.add_21/Add", "model_11/tf.math.add_22/Add", "model_11/tf.concat_2/concat/axis"], "attr": {"N": {"i": "2"}, "Tidx": {"type": "DT_INT32"}, "T": {"type": "DT_FLOAT"}}}, {"name": "model_11/tf.compat.v1.transpose_26/transpose", "op": "Transpose", "input": ["model_11/tf.concat_2/concat", "model_11/tf.compat.v1.transpose_26/transpose/perm"], "attr": {"Tperm": {"type": "DT_INT32"}, "_input_shapes": {"list": {"shape": [{"dim": [{"size": "1"}, {"size": "40"}, {"size": "40"}, {"size": "92"}]}, {"dim": [{"size": "4"}]}]}}, "T": {"type": "DT_FLOAT"}}}, {"name": "model_11/tf.reshape_5/Reshape", "op": "Reshape", "input": ["model_11/tf.compat.v1.transpose_26/transpose", "model_11/tf.reshape_5/Reshape/shape"], "attr": {"T": {"type": "DT_FLOAT"}, "Tshape": {"type": "DT_INT32"}}}, {"name": "model_11/tf.concat_3/concat", "op": "ConcatV2", "input": ["model_11/tf.reshape_5/Reshape", "model_11/tf.reshape_2/Reshape", "model_11/tf.concat_3/concat/axis"], "attr": {"N": {"i": "2"}, "T": {"type": "DT_FLOAT"}, "Tidx": {"type": "DT_INT32"}}}, {"name": "model_11/tf.strided_slice/StridedSlice", "op": "StridedSlice", "input": ["model_11/tf.concat_3/concat", "model_11/tf.strided_slice/StridedSlice/begin", "model_11/tf.strided_slice/StridedSlice/end", "model_11/tf.strided_slice/StridedSlice/strides"], "attr": {"shrink_axis_mask": {"i": "0"}, "Index": {"type": "DT_INT64"}, "new_axis_mask": {"i": "0"}, "begin_mask": {"i": "7"}, "T": {"type": "DT_FLOAT"}, "end_mask": {"i": "5"}, "ellipsis_mask": {"i": "0"}}}, {"name": "model_11/tf.strided_slice_1/StridedSlice", "op": "StridedSlice", "input": ["model_11/tf.concat_3/concat", "model_11/tf.strided_slice_1/StridedSlice/begin", "model_11/tf.strided_slice_1/StridedSlice/end", "model_11/tf.strided_slice_1/StridedSlice/strides"], "attr": {"shrink_axis_mask": {"i": "0"}, "new_axis_mask": {"i": "0"}, "Index": {"type": "DT_INT64"}, "begin_mask": {"i": "5"}, "end_mask": {"i": "5"}, "T": {"type": "DT_FLOAT"}, "ellipsis_mask": {"i": "0"}}}, {"name": "model_11/tf.reshape_8/Reshape", "op": "Reshape", "input": ["model_11/tf.strided_slice/StridedSlice", "model_11/tf.reshape_8/Reshape/shape"], "attr": {"T": {"type": "DT_FLOAT"}, "Tshape": {"type": "DT_INT32"}}}, {"name": "model_11/tf.math.sigmoid_19/Sigmoid", "op": "Sigmoid", "input": ["model_11/tf.strided_slice_1/StridedSlice"], "attr": {"T": {"type": "DT_FLOAT"}}}, {"name": "model_11/tf.compat.v1.transpose_33/transpose", "op": "Transpose", "input": ["model_11/tf.reshape_8/Reshape", "model_11/tf.compat.v1.transpose_33/transpose/perm"], "attr": {"Tperm": {"type": "DT_INT32"}, "_input_shapes": {"list": {"shape": [{"dim": [{"size": "1"}, {"size": "4"}, {"size": "16"}, {"size": "2000"}]}, {"dim": [{"size": "4"}]}]}}, "T": {"type": "DT_FLOAT"}}}, {"name": "model_11/tf.compat.v1.transpose_34/transpose", "op": "Transpose", "input": ["model_11/tf.compat.v1.transpose_33/transpose", "model_11/tf.compat.v1.transpose_34/transpose/perm"], "attr": {"Tperm": {"type": "DT_INT32"}, "_input_shapes": {"list": {"shape": [{"dim": [{"size": "1"}, {"size": "16"}, {"size": "4"}, {"size": "2000"}]}, {"dim": [{"size": "4"}]}]}}, "T": {"type": "DT_FLOAT"}}}, {"name": "model_11/tf.nn.softmax/wa/model.20/dfl/Softmax", "op": "Softmax", "input": ["model_11/tf.compat.v1.transpose_34/transpose"], "attr": {"T": {"type": "DT_FLOAT"}}}, {"name": "model_11/tf.nn.convolution_23/convolution", "op": "Conv2D", "input": ["model_11/tf.nn.softmax/wa/model.20/dfl/Softmax", "model_11/tf.nn.convolution_23/convolution/filter"], "device": "/device:CPU:0", "attr": {"padding": {"s": "U0FNRQ=="}, "_input_shapes": {"list": {"shape": [{"dim": [{"size": "1"}, {"size": "4"}, {"size": "2000"}, {"size": "16"}]}, {"dim": [{"size": "1"}, {"size": "1"}, {"size": "16"}, {"size": "1"}]}]}}, "data_format": {"s": "TkhXQw=="}, "use_cudnn_on_gpu": {"b": true}, "strides": {"list": {"i": ["1", "1", "1", "1"]}}, "T": {"type": "DT_FLOAT"}, "explicit_paddings": {"list": {}}, "dilations": {"list": {"i": ["1", "1", "1", "1"]}}}}, {"name": "model_11/tf.compat.v1.transpose_39/transpose", "op": "Transpose", "input": ["model_11/tf.nn.convolution_23/convolution", "model_11/tf.compat.v1.transpose_39/transpose/perm"], "attr": {"Tperm": {"type": "DT_INT32"}, "_input_shapes": {"list": {"shape": [{"dim": [{"size": "1"}, {"size": "4"}, {"size": "2000"}, {"size": "1"}]}, {"dim": [{"size": "4"}]}]}}, "T": {"type": "DT_FLOAT"}}}, {"name": "model_11/tf.reshape_11/Reshape", "op": "Reshape", "input": ["model_11/tf.compat.v1.transpose_39/transpose", "model_11/tf.reshape_11/Reshape/shape"], "attr": {"T": {"type": "DT_FLOAT"}, "Tshape": {"type": "DT_INT32"}}}, {"name": "model_11/tf.strided_slice_3/StridedSlice", "op": "StridedSlice", "input": ["model_11/tf.reshape_11/Reshape", "model_11/tf.strided_slice_3/ones_like/tensor", "model_11/tf.strided_slice_3/StridedSlice/end", "model_11/tf.strided_slice_3/ones_like"], "attr": {"shrink_axis_mask": {"i": "0"}, "Index": {"type": "DT_INT64"}, "new_axis_mask": {"i": "0"}, "begin_mask": {"i": "5"}, "end_mask": {"i": "5"}, "T": {"type": "DT_FLOAT"}, "ellipsis_mask": {"i": "0"}}}, {"name": "model_11/tf.strided_slice_2/StridedSlice", "op": "StridedSlice", "input": ["model_11/tf.reshape_11/Reshape", "model_11/tf.strided_slice_2/ones_like/tensor", "model_11/tf.strided_slice_2/StridedSlice/end", "model_11/tf.strided_slice_2/ones_like"], "attr": {"shrink_axis_mask": {"i": "0"}, "Index": {"type": "DT_INT64"}, "new_axis_mask": {"i": "0"}, "begin_mask": {"i": "7"}, "T": {"type": "DT_FLOAT"}, "end_mask": {"i": "5"}, "ellipsis_mask": {"i": "0"}}}, {"name": "model_11/tf.math.add_23/Add", "op": "AddV2", "input": ["model_11/tf.strided_slice_3/StridedSlice", "model_11/tf.math.add_23/Add/y"], "attr": {"T": {"type": "DT_FLOAT"}}}, {"name": "model_11/tf.math.subtract/Sub", "op": "Sub", "input": ["model_11/4905", "model_11/tf.strided_slice_2/StridedSlice"], "attr": {"T": {"type": "DT_FLOAT"}}}, {"name": "model_11/tf.math.add_24/Add", "op": "AddV2", "input": ["model_11/tf.math.subtract/Sub", "model_11/tf.math.add_23/Add"], "attr": {"T": {"type": "DT_FLOAT"}}}, {"name": "model_11/tf.math.subtract_1/Sub", "op": "Sub", "input": ["model_11/tf.math.add_23/Add", "model_11/tf.math.subtract/Sub"], "attr": {"T": {"type": "DT_FLOAT"}}}, {"name": "model_11/tf.math.divide/truediv", "op": "Mul", "input": ["model_11/tf.math.add_24/Add", "ConstantFolding/model_11/tf.math.divide/truediv_recip"], "attr": {"T": {"type": "DT_FLOAT"}}}, {"name": "model_11/tf.concat_7/concat", "op": "ConcatV2", "input": ["model_11/tf.math.divide/truediv", "model_11/tf.math.subtract_1/Sub", "model_11/tf.concat_7/concat/axis"], "attr": {"N": {"i": "2"}, "Tidx": {"type": "DT_INT32"}, "T": {"type": "DT_FLOAT"}}}, {"name": "model_11/tf.math.multiply_88/Mul", "op": "Mul", "input": ["model_11/tf.concat_7/concat", "model_11/tf.math.multiply_88/Mul/y"], "attr": {"T": {"type": "DT_FLOAT"}}}, {"name": "model_11/output0/concat", "op": "ConcatV2", "input": ["model_11/tf.math.multiply_88/Mul", "model_11/tf.math.sigmoid_19/Sigmoid", "model_11/output0/concat/axis"], "attr": {"N": {"i": "2"}, "T": {"type": "DT_FLOAT"}, "Tidx": {"type": "DT_INT32"}}}, {"name": "Identity", "op": "Identity", "input": ["model_11/output0/concat"], "attr": {"T": {"type": "DT_FLOAT"}}}], "library": {}, "versions": {"producer": 2129}}, "weightsManifest": [{"paths": ["group1-shard1of12.bin", "group1-shard2of12.bin", "group1-shard3of12.bin", "group1-shard4of12.bin", "group1-shard5of12.bin", "group1-shard6of12.bin", "group1-shard7of12.bin", "group1-shard8of12.bin", "group1-shard9of12.bin", "group1-shard10of12.bin", "group1-shard11of12.bin", "group1-shard12of12.bin"], "weights": [{"name": "ConstantFolding/model_11/tf.math.divide/truediv_recip", "shape": [], "dtype": "float32"}, {"name": "model_11/tf.strided_slice_3/ones_like/tensor", "shape": [3], "dtype": "int32"}, {"name": "model_11/tf.strided_slice_3/StridedSlice/end", "shape": [3], "dtype": "int32"}, {"name": "model_11/tf.strided_slice_3/ones_like", "shape": [3], "dtype": "int32"}, {"name": "model_11/tf.math.add_23/Add/y", "shape": [1, 2, 2000], "dtype": "float32"}, {"name": "model_11/4905", "shape": [1, 2, 2000], "dtype": "float32"}, {"name": "model_11/tf.strided_slice/StridedSlice/begin", "shape": [3], "dtype": "int32"}, {"name": "model_11/tf.strided_slice/StridedSlice/end", "shape": [3], "dtype": "int32"}, {"name": "model_11/tf.strided_slice/StridedSlice/strides", "shape": [3], "dtype": "int32"}, {"name": "model_11/tf.reshape_8/Reshape/shape", "shape": [4], "dtype": "int32"}, {"name": "model_11/tf.compat.v1.transpose_33/transpose/perm", "shape": [4], "dtype": "int32"}, {"name": "model_11/tf.compat.v1.transpose_34/transpose/perm", "shape": [4], "dtype": "int32"}, {"name": "model_11/tf.nn.convolution_23/convolution/filter", "shape": [1, 1, 16, 1], "dtype": "float32"}, {"name": "model_11/tf.compat.v1.transpose_39/transpose/perm", "shape": [4], "dtype": "int32"}, {"name": "model_11/tf.reshape_11/Reshape/shape", "shape": [3], "dtype": "int32"}, {"name": "model_11/tf.strided_slice_2/ones_like/tensor", "shape": [3], "dtype": "int32"}, {"name": "model_11/tf.strided_slice_2/StridedSlice/end", "shape": [3], "dtype": "int32"}, {"name": "model_11/tf.strided_slice_2/ones_like", "shape": [3], "dtype": "int32"}, {"name": "model_11/tf.concat_7/concat/axis", "shape": [], "dtype": "int32"}, {"name": "model_11/tf.math.multiply_88/Mul/y", "shape": [1, 1, 2000], "dtype": "float32"}, {"name": "model_11/tf.nn.convolution_15/convolution/filter", "shape": [3, 3, 256, 64], "dtype": "float32"}, {"name": "model_11/tf.math.add_15/Add/y", "shape": [64], "dtype": "float32"}, {"name": "model_11/tf.nn.convolution_19/convolution/filter", "shape": [3, 3, 64, 64], "dtype": "float32"}, {"name": "model_11/tf.math.add_19/Add/y", "shape": [64], "dtype": "float32"}, {"name": "model_11/tf.nn.convolution_21/convolution/filter", "shape": [1, 1, 64, 64], "dtype": "float32"}, {"name": "model_11/tf.math.add_21/Add/y", "shape": [64], "dtype": "float32"}, {"name": "model_11/tf.nn.convolution_9/convolution/filter", "shape": [1, 1, 256, 128], "dtype": "float32"}, {"name": "model_11/tf.math.add_9/Add/y", "shape": [128], "dtype": "float32"}, {"name": "model_11/tf.image.resize/resize/size", "shape": [2], "dtype": "int32"}, {"name": "model_11/tf.concat/concat/axis", "shape": [], "dtype": "int32"}, {"name": "model_11/tf.nn.convolution_12/convolution/filter", "shape": [3, 3, 384, 256], "dtype": "float32"}, {"name": "model_11/tf.math.add_12/Add/y", "shape": [256], "dtype": "float32"}, {"name": "model_11/tf.nn.convolution_16/convolution/filter", "shape": [3, 3, 256, 256], "dtype": "float32"}, {"name": "model_11/tf.math.add_16/Add/y", "shape": [256], "dtype": "float32"}, {"name": "model_11/tf.nn.convolution_20/convolution/filter", "shape": [3, 3, 256, 256], "dtype": "float32"}, {"name": "model_11/tf.math.add_20/Add/y", "shape": [256], "dtype": "float32"}, {"name": "model_11/tf.nn.convolution_22/convolution/filter", "shape": [1, 1, 256, 28], "dtype": "float32"}, {"name": "model_11/tf.math.add_22/Add/y", "shape": [28], "dtype": "float32"}, {"name": "model_11/tf.concat_2/concat/axis", "shape": [], "dtype": "int32"}, {"name": "model_11/tf.compat.v1.transpose_26/transpose/perm", "shape": [4], "dtype": "int32"}, {"name": "model_11/tf.reshape_5/Reshape/shape", "shape": [3], "dtype": "int32"}, {"name": "model_11/tf.nn.convolution_10/convolution/filter", "shape": [3, 3, 512, 64], "dtype": "float32"}, {"name": "model_11/tf.math.add_10/Add/y", "shape": [64], "dtype": "float32"}, {"name": "model_11/tf.nn.convolution_13/convolution/filter", "shape": [3, 3, 64, 64], "dtype": "float32"}, {"name": "model_11/tf.math.add_13/Add/y", "shape": [64], "dtype": "float32"}, {"name": "model_11/tf.nn.convolution_17/convolution/filter", "shape": [1, 1, 64, 64], "dtype": "float32"}, {"name": "model_11/tf.math.add_17/Add/y", "shape": [64], "dtype": "float32"}, {"name": "model_11/tf.nn.convolution/convolution/filter", "shape": [3, 3, 3, 16], "dtype": "float32"}, {"name": "model_11/tf.math.add/Add/y", "shape": [16], "dtype": "float32"}, {"name": "model_11/tf.nn.convolution_1/convolution/filter", "shape": [3, 3, 16, 32], "dtype": "float32"}, {"name": "model_11/tf.math.add_1/Add/y", "shape": [32], "dtype": "float32"}, {"name": "model_11/tf.nn.convolution_2/convolution/filter", "shape": [3, 3, 32, 64], "dtype": "float32"}, {"name": "model_11/tf.math.add_2/Add/y", "shape": [64], "dtype": "float32"}, {"name": "model_11/tf.nn.convolution_3/convolution/filter", "shape": [3, 3, 64, 128], "dtype": "float32"}, {"name": "model_11/tf.math.add_3/Add/y", "shape": [128], "dtype": "float32"}, {"name": "model_11/tf.nn.convolution_4/convolution/filter", "shape": [3, 3, 128, 256], "dtype": "float32"}, {"name": "model_11/tf.math.add_4/Add/y", "shape": [256], "dtype": "float32"}, {"name": "model_11/tf.nn.convolution_5/convolution/filter", "shape": [3, 3, 256, 512], "dtype": "float32"}, {"name": "model_11/tf.math.add_5/Add/y", "shape": [512], "dtype": "float32"}, {"name": "model_11/tf.compat.v1.pad/wa/model.11/Pad/paddings", "shape": [4, 2], "dtype": "int32"}, {"name": "model_11/tf.nn.convolution_6/convolution/filter", "shape": [3, 3, 512, 1024], "dtype": "float32"}, {"name": "model_11/tf.math.add_6/Add/y", "shape": [1024], "dtype": "float32"}, {"name": "model_11/tf.nn.convolution_7/convolution/filter", "shape": [1, 1, 1024, 256], "dtype": "float32"}, {"name": "model_11/tf.math.add_7/Add/y", "shape": [256], "dtype": "float32"}, {"name": "model_11/tf.nn.convolution_8/convolution/filter", "shape": [3, 3, 256, 512], "dtype": "float32"}, {"name": "model_11/tf.math.add_8/Add/y", "shape": [512], "dtype": "float32"}, {"name": "model_11/tf.nn.convolution_11/convolution/filter", "shape": [3, 3, 512, 256], "dtype": "float32"}, {"name": "model_11/tf.math.add_11/Add/y", "shape": [256], "dtype": "float32"}, {"name": "model_11/tf.nn.convolution_14/convolution/filter", "shape": [3, 3, 256, 256], "dtype": "float32"}, {"name": "model_11/tf.math.add_14/Add/y", "shape": [256], "dtype": "float32"}, {"name": "model_11/tf.nn.convolution_18/convolution/filter", "shape": [1, 1, 256, 28], "dtype": "float32"}, {"name": "model_11/tf.math.add_18/Add/y", "shape": [28], "dtype": "float32"}, {"name": "model_11/tf.concat_1/concat/axis", "shape": [], "dtype": "int32"}, {"name": "model_11/tf.compat.v1.transpose_19/transpose/perm", "shape": [4], "dtype": "int32"}, {"name": "model_11/tf.reshape_2/Reshape/shape", "shape": [3], "dtype": "int32"}, {"name": "model_11/tf.concat_3/concat/axis", "shape": [], "dtype": "int32"}, {"name": "model_11/tf.strided_slice_1/StridedSlice/begin", "shape": [3], "dtype": "int32"}, {"name": "model_11/tf.strided_slice_1/StridedSlice/end", "shape": [3], "dtype": "int32"}, {"name": "model_11/tf.strided_slice_1/StridedSlice/strides", "shape": [3], "dtype": "int32"}, {"name": "model_11/output0/concat/axis", "shape": [], "dtype": "int32"}]}]}